attention.pt (torch, 43757 bytes, 40 tensors)

emb1.weight f4 [33, 10]
0	0x3e46f254	0.19428378
1	0xbf0a1105	-0.5393222
2	0xc016c7b8	-2.3559399
3	0xbef6da14	-0.48213255
4	0x3f4ece74	0.8078377
5	0xbe80b089	-0.25134686
6	0xbf59b813	-0.850465
7	0xbd207c04	-0.03918077
8	0x3f2844eb	0.6573016
9	0xbfad32e0	-1.3531151
10	0xbf45ad20	-0.7721729
11	0xbfdd1f52	-1.7275183
12	0xbe9ee743	-0.31035814
13	0x3fabba46	1.3416221
14	0x3f519631	0.818698
15	0x3b71914d	0.0036860288
16	0xbfd216fa	-1.6413262
17	0x3e5a8d55	0.21342976
18	0xbf45434b	-0.77055806
19	0xc0061086	-2.0947585
20	0x3f387d1a	0.7206589
21	0x3f92fa6a	1.148267
22	0xbfa1c7ad	-1.2639061
23	0xbfdbb7e2	-1.7165492
24	0xbf8c06a8	-1.0939531
25	0xbe198592	-0.1499236
26	0x3f692ece	0.91087043
27	0x3db63d3a	0.08898397
28	0xbfe4f663	-1.7887691
29	0x3fe6a9bd	1.802055
30	0x3ecf430c	0.4048084
31	0x3f5c33db	0.86016625
32	0x402019f4	2.501584
33	0x3ef2485e	0.47320837
34	0xbfc0c461	-1.505993
35	0xbfddf0c5	-1.7339102
36	0x3ed48034	0.4150406
37	0xbf4e8882	-0.80677044
38	0xbf1910c2	-0.59791195
39	0xbf1dc3f1	-0.6162711
40	0x3e6e37ab	0.23263423
41	0x3ef8eea9	0.48619583
42	0xbfbbd487	-1.4674233
43	0x3fac6a69	1.3469974
44	0xbf81e58a	-1.0148175
45	0xc002bb23	-2.042672
46	0x3fc57476	1.5426166
47	0x3ebad316	0.3648917
48	0x3e9e3a64	0.30903924
49	0xbf05d75b	-0.5228173
50	0x3ff6483c	1.9240794
51	0x3f903086	1.1264808
52	0xbe7c6844	-0.24649149
53	0x3d85fd32	0.06542434
54	0x3f60fca2	0.8788549
55	0x3e380f24	0.17974526
56	0xbeb174a3	-0.346593
57	0x3faa8014	1.3320336
58	0x400ac2b7	2.1681345
59	0x3f3e7327	0.7439446
60	0x3fa88374	1.3165116
61	0xc01d5bbe	-2.4587245
62	0x3f8c2eb7	1.0951756
63	0x3d009c48	0.03139904
64	0xc006914d	-2.1026185
65	0xbf3ac7de	-0.72961223
66	0x3bc39644	0.005968841
67	0x3f621da9	0.8832651
68	0xbfba7d55	-1.4569498
69	0xbf948844	-1.1604085
70	0x3ecfb974	0.40571177
71	0x3fac6b13	1.3470176
72	0x3fa05e20	1.2528725
73	0xbe3668c8	-0.17813408
74	0xbff993b8	-1.9498205
75	0xbdc2b01d	-0.09506247
76	0xbf2016b5	-0.6253465
77	0x3d869b1d	0.06572554
78	0x3d32d915	0.043664057
79	0x403166c0	2.7718964
80	0xbf84c2c3	-1.0371937
81	0x3fb4931e	1.4107397
82	0x3d8e5e68	0.069516
83	0xbf06083a	-0.523563
84	0xbe738da6	-0.23784503
85	0xbe62822c	-0.22119969
86	0xbf0b1ce7	-0.54340976
87	0xbfdead73	-1.7396683
88	0x3f0e713d	0.5564154
89	0xbf94a6c1	-1.1613389
90	0x3f9eb56d	1.2399117
91	0xbe206b3a	-0.15665904
92	0x3fa48909	1.285432
93	0xbf437f6c	-0.76366305
94	0x3fc64d88	1.5492411
95	0x3f482a8d	0.7818993
96	0xbdf05cdb	-0.11736461
97	0xbd8f59bd	-0.06999538
98	0xbe0d0563	-0.13771586
99	0xbf868d53	-1.0511879
100	0xbfd5d839	-1.6706611
101	0x3fcae70e	1.5851762
102	0xbf08799b	-0.53310555
103	0x3ff36bb7	1.9017247
104	0x3f039973	0.5140602
105	0xbfcd29cb	-1.6028379
106	0xbe790577	-0.24318491
107	0x3f9acb02	1.2093203
108	0x3f0012d3	0.50028723
109	0xbe6fc5eb	-0.23415343
110	0xbf193a28	-0.59854364
111	0xbf62269c	-0.88340163
112	0x3fece1b3	1.8506378
113	0x3fbf0815	1.4924341
114	0xbcf2f13a	-0.029656041
115	0xbec44757	-0.38335678
116	0x3fab51a4	1.338429
117	0x3f24eeb9	0.6442676
118	0xbf86cff5	-1.0532213
119	0xbff7d58d	-1.9362046
120	0xbf9ff155	-1.2495524
121	0xbef3ab41	-0.47591594
122	0xc025dba8	-2.5915318
123	0xbf60df82	-0.87841046
124	0x3f84a4b7	1.0362767
125	0xbf657c32	-0.8964263
126	0xbfa8e84c	-1.3195891
127	0x3e192a58	0.14957559
128	0x3f4cee25	0.8005088
129	0xbf554dc0	-0.8332176
130	0x3ff66d0f	1.9252032
131	0xbfc61483	-1.547501
132	0xbeaa7ac6	-0.33296794
133	0xbff9c0ad	-1.9511925
134	0x3f4adb0d	0.79240495
135	0x3f6416e5	0.89097434
136	0xbe95d0b4	-0.2926079
137	0xbf19a6c2	-0.6002008
138	0xbfea9264	-1.8325925
139	0x3fe19928	1.7624865
140	0xc001713e	-2.0225368
141	0xbf7e15fd	-0.992523
142	0xbf48ea3b	-0.7848241
143	0x3fc719c6	1.555474
144	0x3edb3c98	0.42819667
145	0x3f75b31f	0.9597644
146	0xbe95723f	-0.29188725
147	0xbf917258	-1.136302
148	0x3eeb5588	0.45963693
149	0x3f897ffd	1.0742184
150	0xbf47efe6	-0.7810043
151	0x3f2a8baa	0.6661936
152	0xbeae268f	-0.34013793
153	0xbf979852	-1.184336
154	0x3f5b2599	0.85604244
155	0xbfcaee8e	-1.5854051
156	0x3fb0501f	1.3774451
157	0xbf5b5da5	-0.85689765
158	0x4010c351	2.2619212
159	0xc038295a	-2.877524
160	0xbe1afb32	-0.15134886
161	0xbfbc3708	-1.4704294
162	0x4011217a	2.2676682
163	0xbfcc2ade	-1.5950582
164	0xbe51331a	-0.2042965
165	0xbfa195ce	-1.2623842
166	0x3ead6f18	0.3387382
167	0x3f25e5d7	0.6480383
168	0xbfc3c226	-1.5293624
169	0xbfebe870	-1.8430309
170	0xbf40820a	-0.75198424
171	0x3f9afa4c	1.2107635
172	0x3ff00b3c	1.8753428
173	0x3ed0a8aa	0.4075368
174	0xbf7c5c80	-0.98578644
175	0x3f154e10	0.5832224
176	0x3fee7715	1.8630091
177	0xbfc30904	-1.5237126
178	0xbe8a6bb9	-0.2703531
179	0x3ffa8cf1	1.9574262
180	0x3fc7852a	1.5587513
181	0x3f86db4d	1.0535675
182	0x3e7499a8	0.2388674
183	0xbfe0e53d	-1.7569958
184	0xbf69b2b0	-0.9128828
185	0x3f242c21	0.64129835
186	0xbfc5d877	-1.5456685
187	0x3f6e703d	0.9314001
188	0x3fd83ae2	1.689297
189	0x3e8ae70a	0.27129394
190	0xbe029df8	-0.12755573
191	0x3f807d2b	1.0038198
192	0x3e3d4f8e	0.18487379
193	0x3b545665	0.0032400128
194	0xc00c8af0	-2.19598
195	0x3fb60926	1.4221542
196	0xbf9dadc5	-1.2318655
197	0x3d52c065	0.051453013
198	0x3f1345ff	0.5752868
199	0x3fb9a137	1.4502324
200	0xbebee704	-0.37285626
201	0xbfa27dfe	-1.26947
202	0xbe973821	-0.2953501
203	0x3d937c87	0.07201486
204	0x3f000914	0.5001385
205	0x3ea7cb5d	0.3277234
206	0x3ff5ea60	1.921215
207	0x3fc34eee	1.5258462
208	0x3fa51aed	1.2898842
209	0x3fe95371	1.8228589
210	0x3f90298e	1.1262681
211	0xbffa759c	-1.9567142
212	0x3f8d5b8b	1.1043562
213	0xc0091ac0	-2.1422577
214	0xbf284fa6	-0.65746534
215	0xbfc1480f	-1.5100116
216	0xbdcf5815	-0.10124222
217	0x3f0696a6	0.5257362
218	0xbf10aa95	-0.5651029
219	0xbe836050	-0.25659418
220	0xbf7f9b56	-0.998464
221	0x3d3cc1c4	0.046083227
222	0x3f36ef1d	0.7145861
223	0xbebb1eb2	-0.36546856
224	0x40221698	2.532629
225	0x3fbdf108	1.4839182
226	0x3f5e1df7	0.8676447
227	0xbe999d0e	-0.30002636
228	0x4052c57a	3.293303
229	0x3e0d2f98	0.13787687
230	0x3f7a1096	0.9768156
231	0xbfa31a14	-1.2742333
232	0xbfc8cabb	-1.5686868
233	0xbf4baac3	-0.79557437
234	0x3fa397c7	1.2780694
235	0x3dd2afd9	0.102874465
236	0xbf437e66	-0.76364744
237	0x3faab56e	1.3336618
238	0xbfac131d	-1.3443333
239	0xbf9cd275	-1.2251726
240	0xbf122fe6	-0.5710434
241	0xbee2e610	-0.4431615
242	0xbf11a8c3	-0.56898135
243	0xc02cc779	-2.6996748
244	0x3e76ee3c	0.24114317
245	0xbf8056aa	-1.0026448
246	0xbfe81275	-1.8130633
247	0x3fe9bae4	1.826016
248	0xbf355760	-0.7083645
249	0x3edc25d8	0.42997622
250	0x3f4348c2	0.76282895
251	0xc01800d3	-2.3750503
252	0x3fed9b24	1.856297
253	0xbeb68c5f	-0.3565397
254	0xc01d21d5	-2.45519
255	0xbfa01aef	-1.250822

lstm1.weight_ih_l0 f4 [40, 10]
0	0xbea74ac8	-0.3267424
1	0xbf576a2b	-0.84146374
2	0x3dbca2e1	0.09210754
3	0x3e8e4349	0.2778571
4	0xbf01edb2	-0.5075332
5	0xbedcff0d	-0.43163338
6	0x3f4103bd	0.7539633
7	0x3dd45d12	0.10369314
8	0xbe0ea997	-0.13931881
9	0xbf3806f2	-0.718856
10	0x3e4744f8	0.19459903
11	0xbf3b9195	-0.73269016
12	0x3f4ef091	0.80835825
13	0xbe64cce0	-0.22343779
14	0xbc83e5b5	-0.016100744
15	0x3edcdf1e	0.43138975
16	0xbe9ca872	-0.30597264
17	0x3e439775	0.19100745
18	0xbed655b2	-0.41862255
19	0x3eab229c	0.33424842
20	0xbf453468	-0.7703309
21	0x3f6c597d	0.9232405
22	0xbe83e17d	-0.2575797
23	0x3d588001	0.05285645
24	0x3edac996	0.42731923
25	0xbe7e3e0d	-0.24828358
26	0xbe548b20	-0.20756197
27	0x3ed6c202	0.4194489
28	0x3f7884d9	0.9707771
29	0xbeb0db10	-0.3454213
30	0xbed39858	-0.41327167
31	0xbf566414	-0.8374646
32	0xbe37c80d	-0.17947407
33	0xbd089c73	-0.033352327
34	0x3f1089b3	0.5646011
35	0xbe72c70e	-0.23708746
36	0xbe81dd64	-0.2536422
37	0x3f1161d3	0.5678989
38	0xbf3168fb	-0.6930081
39	0xbde1fad3	-0.11034169
40	0x3e8a26ae	0.26982635
41	0xbd960642	-0.07325412
42	0xbf863a81	-1.0486604
43	0xbf9ae279	-1.2100364
44	0x3e69bf34	0.22826844
45	0xbe95912a	-0.29212314
46	0xba85599e	-0.0010173803
47	0x3d28bcfb	0.04119585
48	0x3f960a01	1.1721803
49	0xbf19d384	-0.6008837
50	0x3f229680	0.63510895
51	0x3ed5ac56	0.41733044
52	0x3e9b19a2	0.30292994
53	0xbf0a20ea	-0.5395647
54	0xbf166625	-0.5874961
55	0xbf85158c	-1.03972
56	0xbd32d0fc	-0.043656334
57	0xbf0567ff	-0.5211181
58	0x3ed5f361	0.41787246
59	0x3e7162a6	0.23572788
60	0x3d4ec02c	0.050476238
61	0xbe48d5f8	-0.19612873
62	0xbf638f82	-0.8889085
63	0xbf72574e	-0.94664466
64	0x3e8eabe4	0.27865517
65	0xbc401475	-0.011723627
66	0x3ede441b	0.43411335
67	0xbeb2c70b	-0.34917483
68	0x3f0caa33	0.54947203
69	0xbdd90c3a	-0.10598035
70	0x3d3d3ace	0.04619866
71	0xbec9a42d	-0.3938307
72	0x3f39cf14	0.725816
73	0x3ebf9a5a	0.37422448
74	0x3f49d130	0.7883482
75	0xbdf44c7f	-0.11928653
76	0x3f700c5f	0.93768877
77	0xbfc6e460	-1.5538445
78	0xbe1686f9	-0.14699925
79	0xbe551eec	-0.20812577
80	0x3ee999d4	0.45625174
81	0xbe0e538e	-0.13899061
82	0x3f00e7ba	0.50353587
83	0xbf0299e2	-0.51016057
84	0x3e102da7	0.14079915
85	0x3e8c5c79	0.274143
86	0x3f02f617	0.51156753
87	0xbe19ae71	-0.1500795
88	0x3f2faa4c	0.6861923
89	0xbef19ebe	-0.47191423
90	0x3e950ff7	0.29113743
91	0xbe102792	-0.14077595
92	0xbdf8ebe1	-0.12154365
93	0x3ef9eedc	0.48815048
94	0xbf9285d2	-1.1447089
95	0xbd37ccf0	-0.044873178
96	0x3ff35e64	1.9013181
97	0xbe0919c6	-0.13388738
98	0xbf491cd4	-0.78559613
99	0x3db0363b	0.08604094
100	0x3f143884	0.57898736
101	0xbe7f4ad0	-0.24930882
102	0x3dd0f343	0.102026485
103	0xbe93de08	-0.28880334
104	0xbe563ada	-0.20920888
105	0xbf872cfd	-1.0560604
106	0xbe0c1042	-0.13678077
107	0xbfdecd01	-1.7406312
108	0xbf56b19a	-0.8386475
109	0x3df138d1	0.11778415
110	0xbcd3d308	-0.025857463
111	0x3e860c06	0.26181048
112	0xbdb762a4	-0.08954361
113	0xbf3a22ac	-0.72709155
114	0xbefcfcdb	-0.49411663
115	0xbbe68039	-0.0070343283
116	0xbe47f666	-0.19527587
117	0xbf09f32f	-0.53886694
118	0x3d801984	0.06254867
119	0x3e84da9b	0.25948033
120	0x3f8ffb5c	1.1248584
121	0x3ed5f3cf	0.41787574
122	0x3f8eb9fb	1.1150507
123	0xbf645223	-0.8918783
124	0xbfac03fd	-1.3438717
125	0xbeb729cb	-0.35774073
126	0xbed6da7e	-0.4196357
127	0xbfc46653	-1.5343727
128	0xbf14eefa	-0.5817715
129	0x3e890fef	0.2676997
130	0xbe961d7a	-0.29319364
131	0xbe016ac4	-0.12638384
132	0x3da3d676	0.079998896
133	0x3f1835b1	0.59456927
134	0x3e36ca2d	0.17850561
135	0xbf369ab5	-0.71329814
136	0xbedc93ce	-0.43081516
137	0xbf053902	-0.5204011
138	0x3e26c0f4	0.16284543
139	0xbea16ef6	-0.3152997
140	0xbd9790ee	-0.0740069
141	0xbedb57bc	-0.42840374
142	0x3f3dee48	0.74191713
143	0xbf091cfd	-0.5355986
144	0xbe8f34ff	-0.2797012
145	0xbe092788	-0.13393986
146	0xbf196bad	-0.59929925
147	0xbec5d239	-0.3863695
148	0x3cfbccf0	0.03073737
149	0x3ea1ef3d	0.31627837
150	0x3f153368	0.58281565
151	0x3ef4d5ac	0.4781927
152	0x3fadce71	1.3578626
153	0xbe8ed817	-0.27899238
154	0xbf13e491	-0.5777064
155	0x3d183008	0.03715518
156	0xbce73453	-0.028223192
157	0xbf83a02c	-1.0283256
158	0xbf244302	-0.64164746
159	0x3e12ba75	0.1432894
160	0x3ca83f3e	0.020537969
161	0xbf075182	-0.52858746
162	0xbe784b69	-0.24247517
163	0xbd64755b	-0.05577598
164	0xbf16b295	-0.58866245
165	0xbe5d00ba	-0.21582308
166	0xbda6f95c	-0.0815303
167	0xbefd1e5e	-0.4943723
168	0x3f1d527a	0.61453974
169	0x3f224533	0.6338684
170	0xbef5bae0	-0.47994137
171	0xbf225f01	-0.63426214
172	0xbf7eb322	-0.99492085
173	0x3ecb4aef	0.39705607
174	0x3f709282	0.93973553
175	0x3f841bd7	1.0320996
176	0xbe3fe14d	-0.18738289
177	0x3ebc1ff0	0.36743116
178	0x3ea2345b	0.3168057
179	0xbf840d1d	-1.0316502
180	0xbe23d714	-0.16000015
181	0xbf7dfb6d	-0.9921177
182	0xbc93d300	-0.018044949
183	0xbe858c50	-0.26083612
184	0xbb204011	-0.002445225
185	0x3e8c0dc0	0.2735424
186	0xbef5069e	-0.4785661
187	0x3f033785	0.5125659
188	0x3ed8254f	0.42215964
189	0xbde7772a	-0.113020256
190	0xbea2d1a0	-0.31800556
191	0xbf7f3f13	-0.9970562
192	0xbe601065	-0.21881254
193	0xbf0b5778	-0.5443034
194	0x3f2097bf	0.62731546
195	0x3f55d76f	0.8353185
196	0xbeacbd68	-0.33738256
197	0x3e1b6c6f	0.15178083
198	0x3e85cf0e	0.26134533
199	0xbfb5a64b	-1.4191374
200	0x3eec1c92	0.46115547
201	0x3e8a9748	0.27068543
202	0xbea90c97	-0.33017418
203	0x3c70f3ab	0.0147065325
204	0x3d2bf837	0.041984763
205	0xbf883e06	-1.0643928
206	0xbecc14bb	-0.39859566
207	0x3fa8dc6b	1.3192266
208	0xbef40087	-0.47656652
209	0xbfac7b45	-1.3475119
210	0x3ec5f1b9	0.38660982
211	0x3f2dfb61	0.679617
212	0xbecc630d	-0.3991932
213	0xbb76bc81	-0.0037648978
214	0x3f05a91e	0.5221118
215	0x3f90c02f	1.130865
216	0x3e215779	0.15756024
217	0xbd9b6bee	-0.07588945
218	0x3edb4c52	0.42831665
219	0x3df0e7fc	0.117629975
220	0x3f6e9e31	0.9321013
221	0xbe3b8dab	-0.18315761
222	0x3eeab150	0.45838404
223	0x3d678a95	0.056528646
224	0xbe8407b4	-0.25787127
225	0x3ffe2e06	1.9857795
226	0x3e3c2365	0.18372877
227	0xbe6e39c2	-0.2326422
228	0x3e79178d	0.2432539
229	0x3f90b5cd	1.1305481
230	0xbeef177c	-0.46697605
231	0x3ed440a9	0.41455582
232	0x3ee58958	0.44831347
233	0x3f5085a6	0.8145393
234	0x3e8d2205	0.27565017
235	0xbd1200e2	-0.035645373
236	0x3eb9df8e	0.3630337
237	0x3e53bd16	0.206776
238	0x3e907be6	0.28219527
239	0xbe20dafd	-0.15708537
240	0x3ef23a53	0.47310123
241	0x3f399ad7	0.7250189
242	0x3f9a45aa	1.205251
243	0xbde65331	-0.11246336
244	0xbe8df137	-0.27723095
245	0x3e984529	0.29740265
246	0x3fd82809	1.6887218
247	0xbee00ab1	-0.43758157
248	0x3f6265a7	0.8843636
249	0xbef2b21a	-0.47401506
250	0xbd92eeec	-0.07174477
251	0x3d213d8c	0.039365336
252	0x3ea7a5d4	0.32743704
253	0x3c466e12	0.012111204
254	0x3f463288	0.77420855
255	0x3faf0ec1	1.3676378

lstm1.weight_hh_l0 f4 [40, 10]
0	0xbea9e08d	-0.3317913
1	0x3ea86c15	0.3289496
2	0xbe959c8e	-0.29221004
3	0xbf42d962	-0.7611295
4	0xbf582e95	-0.8444608
5	0x3f4d1667	0.8011231
6	0x3d805f2a	0.06268151
7	0xbee972ec	-0.4559549
8	0xbf6f1ac5	-0.9340022
9	0xbed8ff88	-0.42382455
10	0x3e11f449	0.14253344
11	0x3fb9f9ef	1.4529399
12	0x3e246712	0.16054943
13	0xbf1f8822	-0.623171
14	0x3f57a627	0.84237903
15	0xbf22fc1a	-0.63665926
16	0xbf02c2d8	-0.5107856
17	0x3f61ea39	0.8824802
18	0x3f902130	1.1260128
19	0x3d58b219	0.052904222
20	0xbf8f14d4	-1.1178231
21	0xbe6de0a6	-0.23230228
22	0x3f9ab874	1.2087541
23	0xbf75bd86	-0.95992315
24	0xbec5fa0d	-0.38667336
25	0x3f4cc420	0.79986763
26	0x3e6a954b	0.22908513
27	0x3e6e59d2	0.23276451
28	0xbef2858e	-0.4736752
29	0x3f8b8fca	1.0903256
30	0x3be4741e	0.00697185
31	0x3f200447	0.62506527
32	0x3ed1cf9f	0.40978715
33	0x3e193436	0.14961323
34	0x3f168eb6	0.5881151
35	0x3f29e722	0.66368306
36	0xbf4b1329	-0.7932611
37	0x3dd352b4	0.10318509
38	0x3ed27e36	0.41111916
39	0x3fa70b22	1.3050272
40	0x3ec4ee5f	0.38463113
41	0x3f1bfdfb	0.6093442
42	0x3eda7c9a	0.42673188
43	0x3f8f3fb6	1.1191318
44	0x3f5ab108	0.8542638
45	0xbc78f8df	-0.015196054
46	0x3eec916e	0.46204704
47	0xbfd69b19	-1.6766082
48	0xbf9ffa05	-1.2498175
49	0x3ef08206	0.469742
50	0x3d92856e	0.07154356
51	0x3ecbfb89	0.39840344
52	0x3f1709bb	0.5899922
53	0xbf4ad6ca	-0.7923399
54	0xbddf4177	-0.10901158
55	0xbd655c2d	-0.05599611
56	0x3d9f309f	0.077729456
57	0x3dd88a2c	0.10573229
58	0x3df4e3f4	0.11957541
59	0xbc90b7e4	-0.01766581
60	0xbecb4199	-0.39698485
61	0x3f4db21f	0.80349916
62	0x3e8e7c67	0.27829286
63	0x3e3cbe3c	0.18431944
64	0x3ecea7f4	0.40362513
65	0xbef062a9	-0.46950272
66	0xbe8f41f0	-0.27979994
67	0xbdde09f4	-0.10841742
68	0x3f1c7289	0.61112267
69	0x3e6db0f2	0.2321203
70	0xbf86faa8	-1.0545244
71	0x3e188cbb	0.14897434
72	0x3f3d0825	0.7384055
73	0xbf211fa3	-0.629389
74	0x3ef66357	0.48122665
75	0x3f8dea27	1.1087083
76	0xbef83baa	-0.4848302
77	0x3f35217f	0.70754236
78	0x3e63e7fa	0.22256461
79	0x3fa41cdf	1.2821311
80	0xbe2744d2	-0.16334847
81	0x3eeecef1	0.4664226
82	0x3e8b9130	0.27259207
83	0x3d4b28ba	0.049599387
84	0x3f44811b	0.767595
85	0x3e969a2b	0.29414496
86	0x3e1a7bf8	0.15086353
87	0x3f93a931	1.1536008
88	0x3f66cf35	0.9015992
89	0x3e67f47b	0.22651856
90	0xbe5f8d72	-0.21831301
91	0xbe549a02	-0.20761874
92	0x3dcb5600	0.099285126
93	0xbf36b670	-0.7137213
94	0x3f24fd45	0.6444896
95	0x3e7db03c	0.2477426
96	0xbf087472	-0.5330268
97	0x3f45bb6d	0.77239114
98	0x3f0c6a3d	0.54849607
99	0x3d95071e	0.07276748
100	0x3f40df35	0.75340587
101	0x3e22fc29	0.15916504
102	0xbe9e75cd	-0.3094925
103	0xbf5eea2f	-0.87076086
104	0x3e3b7c93	0.1830924
105	0xbdde987f	-0.1086893
106	0xbf09e2e5	-0.5386184
107	0x3ea843b5	0.32864156
108	0x3e9c3da0	0.30515766
109	0x3e715d00	0.23570633
110	0x3ef41134	0.47669375
111	0x3d42d33d	0.047564734
112	0x3e9076f3	0.2821575
113	0xbf0428ea	-0.5162493
114	0x3f5ef9d3	0.8709995
115	0xbf37025c	-0.71487975
116	0xbe12a32d	-0.14320059
117	0x3f6aa523	0.9165823
118	0x3f333ceb	0.7001483
119	0xbd53a734	-0.05167313
120	0xbdc46153	-0.095888756
121	0xbe574624	-0.2102285
122	0x3ea399f8	0.31953406
123	0xbef1519b	-0.47132573
124	0xbea7f847	-0.32806608
125	0xbe9b14e7	-0.30289385
126	0x3d56d0b5	0.052445132
127	0xbf2a69ca	-0.6656767
128	0xbe936d91	-0.2879453
129	0xbee255c6	-0.44206065
130	0x3e430f01	0.19048692
131	0xbd8a5073	-0.06753626
132	0x3e7b9e45	0.24572094
133	0xbd952742	-0.072828785
134	0xbeebe851	-0.4607568
135	0x3f0e92da	0.5569283
136	0x3e8dd7cc	0.27703702
137	0xbd327d40	-0.04357648
138	0xbe142aeb	-0.14469497
139	0x3e896457	0.26834366
140	0x3de351de	0.11099599
141	0x3ef34c79	0.47519282
142	0xbe3a1db1	-0.18175389
143	0x3deccb88	0.11562258
144	0x3f42921c	0.76004195
145	0xbf6a068a	-0.9141623
146	0xbf9a189e	-1.2038763
147	0x3f6d0268	0.92581797
148	0x3fc5574a	1.5417264
149	0x3f99f2e8	1.2027254
150	0x3e71ed8b	0.23625772
151	0x3cefb392	0.02926043
152	0x3ef9bd2e	0.48777145
153	0xbf1cfa71	-0.61319643
154	0x3ef8ab96	0.4856841
155	0xbf3caf81	-0.737053
156	0xbd741b65	-0.059596438
157	0xbd5181cc	-0.051149175
158	0xbd11c9e8	-0.035592943
159	0xbe003e37	-0.12523733
160	0x3eb5da8f	0.3551831
161	0x3f8fb646	1.12275
162	0x3f2d47c1	0.6768761
163	0xbf27741f	-0.6541156
164	0x3f539d20	0.8266163
165	0xbe27229a	-0.16321793
166	0x3dd0b0f8	0.10190004
167	0x3f8c92ad	1.0982262
168	0x3f4c40a0	0.7978611
169	0x3ed41d84	0.4142877
170	0x3e162d61	0.14665748
171	0xbe8c87bf	-0.27447316
172	0xbee56413	-0.44802913
173	0x3dc760fc	0.09735295
174	0xbd294310	-0.04132372
175	0x3f0353ae	0.5129956
176	0xbeea638e	-0.4577908
177	0x3e25eed7	0.16204391
178	0xbbe377a6	-0.0069417534
179	0x3f4f3c8e	0.80951774
180	0x3e46bc9e	0.19407889
181	0x3f914efe	1.1352232
182	0x3f159973	0.5843727
183	0x3e466bff	0.19377135
184	0x3fdb0595	1.7111079
185	0xbe9a224d	-0.30104294
186	0xbeeec094	-0.466313
187	0x3f5df22d	0.86697656
188	0x3f865d5d	1.0497242
189	0xbe905ef2	-0.28197438
190	0x3eaf70bf	0.34265706
191	0x3e2381f8	0.15967548
192	0x3e30caa1	0.17264797
193	0x3f3202af	0.69535345
194	0x3e508475	0.20363028
195	0x3e94a0cf	0.29028937
196	0xbf11669b	-0.5679719
197	0xbde985d3	-0.11402478
198	0xbdbbfcb7	-0.09179061
199	0xbed9a35e	-0.42507452
200	0x3e9b78d8	0.30365634
201	0x3e9561ed	0.29176274
202	0xbe99007e	-0.29883188
203	0x3d9bb35d	0.0760257
204	0xbe11d0c6	-0.14239797
205	0xbc87c6d8	-0.016574308
206	0x3d46400f	0.048400935
207	0xbdb9ca96	-0.09071843
208	0xbeebd1f3	-0.46058616
209	0xbf31794f	-0.6932573
210	0xbe862bd1	-0.26205304
211	0x3e81993a	0.25312215
212	0x3f682813	0.9068615
213	0x3f77da56	0.9681753
214	0x3d5efbc6	0.05443933
215	0x3e0fad48	0.14030945
216	0x3f40690c	0.7516029
217	0xbd9b3e6f	-0.07580268
218	0xbde50d25	-0.11184148
219	0xbd833bd9	-0.064078994
220	0x3db9730f	0.09055149
221	0x3e8d0d4a	0.275492
222	0xbe39b297	-0.18134533
223	0x3cf3b39c	0.02974873
224	0xbe22a016	-0.1588138
225	0xbeeb2fb1	-0.45934823
226	0x3eb06e30	0.34459066
227	0x3e96f9ed	0.29487553
228	0x3ec173c0	0.37783623
229	0xbea06000	-0.31323242
230	0x3e756997	0.2396606
231	0xbee1412b	-0.43995032
232	0xbeb89a60	-0.3605528
233	0xbdc34cf5	-0.09536163
234	0xbf2b4cb3	-0.6691391
235	0xbed08637	-0.40727398
236	0x3f88a4ea	1.0675328
237	0xbf20afab	-0.6276805
238	0xbf4c7edc	-0.7988107
239	0xbf2305d2	-0.63680756
240	0xbd97b4a5	-0.07407502
241	0x3e672878	0.22574031
242	0xbed3e168	-0.4138291
243	0xbf00ecb6	-0.5036119
244	0x3f6b7d5e	0.9198817
245	0xbe41318b	-0.18866555
246	0xbe076f94	-0.13226157
247	0xbee0b7c2	-0.43890196
248	0xbe238cc3	-0.15971665
249	0x3f2de9b9	0.6793476
250	0xbf2087a0	-0.6270695
251	0xbf08c6b7	-0.53428215
252	0x3edf24e2	0.43582827
253	0x3cf9526f	0.030434815
254	0xbe9c6a31	-0.30549768
255	0x3edf7804	0.43646252

lstm1.bias_ih_l0 f4 [40]
0	0x3f09e485	0.5386432
1	0x3edb913c	0.42884243
2	0x3f4e49c8	0.8058133
3	0x3e36c8de	0.17850062
4	0x3ed5493c	0.41657436
5	0x3f864d91	1.0492421
6	0x3fb2dd88	1.3973856
7	0x3e68007d	0.22656436
8	0x3f8cef81	1.1010591
9	0x3f00b845	0.50281173
10	0x3ef64878	0.48102164
11	0x3f93f796	1.1559932
12	0x3d5151c4	0.05110337
13	0xbe853aff	-0.26021573
14	0x3f6c7b84	0.9237597
15	0x3dfdf48c	0.12400159
16	0x3f891779	1.0710288
17	0x3ee7ff09	0.45311764
18	0x3f2cd197	0.6750731
19	0x3e8c5d8b	0.27415118
20	0x3dce801e	0.1008303
21	0x3e878700	0.26470184
22	0xbea045ed	-0.3130335
23	0xbeae934f	-0.34096763
24	0x3ee5a219	0.44850233
25	0xbd9fc890	-0.07801926
26	0xbf048986	-0.51772344
27	0x3e1fe952	0.15616348
28	0x3efae554	0.49003088
29	0x3e73ac14	0.23796111
30	0xba6e2f45	-0.0009086023
31	0x3d1265a4	0.035741463
32	0x3faea1be	1.364311
33	0x3bbfef9d	0.0058574216
34	0x3f2a4079	0.6650463
35	0x3e714f11	0.23565318
36	0x3f5949fe	0.8487853
37	0x3f0d6dff	0.55245966
38	0x3e1a324f	0.15058254
39	0x3f75ea38	0.96060514

lstm1.bias_hh_l0 f4 [40]
0	0x3e431c18	0.19053686
1	0x3f010393	0.5039608
2	0x3f656482	0.8960649
3	0x3e939a30	0.28828573
4	0x3f15c17a	0.58498347
5	0x3f4c3217	0.7976393
6	0x3f8b6c0a	1.0892346
7	0x3d8c82a8	0.06860858
8	0x3f6293c8	0.88506746
9	0x3ebc7008	0.36804223
10	0x3f133237	0.57498497
11	0x3fa28646	1.2697227
12	0xbe6e6b1f	-0.23283051
13	0xbe793334	-0.24335939
14	0x3f2e2fd2	0.6804172
15	0xbcc210e9	-0.023689704
16	0x3fb1753f	1.3863906
17	0x3ecb5e4a	0.39720374
18	0x3f39442d	0.72369653
19	0xbe27c649	-0.16384234
20	0x3e817943	0.25287828
21	0x3e8feeee	0.28111976
22	0xbe492bd5	-0.19645627
23	0xbee11c3f	-0.43966863
24	0x3f4809f1	0.7814017
25	0xbf1e6a2a	-0.61880744
26	0xbefbfd52	-0.49216706
27	0x3efae46d	0.490024
28	0x3f5b01d1	0.85549647
29	0x3dda0620	0.106456995
30	0x3d12af3b	0.035811644
31	0xbd64688f	-0.055763777
32	0x3f92502e	1.1430719
33	0x3eb0b896	0.34515828
34	0x3efe54da	0.49674112
35	0x3d0c85c0	0.03430724
36	0x3f002a5d	0.5006464
37	0x3f2436f4	0.6414635
38	0x3e207839	0.15670861
39	0x3f6ec7be	0.9327353

lstm1.weight_ih_l1 f4 [40, 10]
0	0xbf39c9b5	-0.72573406
1	0x3f28633a	0.6577641
2	0x3f941d6e	1.1571481
3	0x3de146d1	0.10999835
4	0x3ed2181f	0.41034028
5	0x3fb19480	1.3873444
6	0xbebc654e	-0.3679604
7	0x3eb1eff7	0.3475339
8	0x3eeba78a	0.4602626
9	0x3fcf3a28	1.6189623
10	0x3ea4a23f	0.32155034
11	0xbe5c9604	-0.21541601
12	0xbd9cfb47	-0.07665115
13	0xbf2ce9ea	-0.67544425
14	0x3ebf086b	0.3731111
15	0x3d72f472	0.059315152
16	0xbfe6fee3	-1.8046535
17	0x3edc9e06	0.43089312
18	0x3e579a97	0.21055065
19	0xbb680dbf	-0.0035408584
20	0x3ef391af	0.47572085
21	0x3edab708	0.42717767
22	0xbe9b0a6f	-0.30281398
23	0xbf8895a9	-1.0670673
24	0x3f3aa30a	0.7290503
25	0xbe966123	-0.29370984
26	0xbf25f749	-0.6483045
27	0x3f520701	0.8204194
28	0x3f5be7ae	0.8590039
29	0xbda4a135	-0.0803856
30	0x3e2b56bb	0.16732304
31	0x3f517ed4	0.8183415
32	0x3ea96d5b	0.33091244
33	0xbf828527	-1.0196885
34	0x3f4e7bb8	0.8065753
35	0xbf75e78c	-0.9605644
36	0xbec66b29	-0.38753632
37	0x3fa2eb6c	1.2728095
38	0x3fa58249	1.2930385
39	0xbd8e013d	-0.0693383
40	0xbe3f6624	-0.18691307
41	0x3f034668	0.51279306
42	0x3f9df790	1.2341175
43	0x3e0a3ffd	0.13500972
44	0x3f9c928b	1.2232221
45	0x3f22d6ac	0.63608813
46	0xbe7ac95e	-0.24490878
47	0x3f795d1d	0.97407705
48	0xbd8e1b1d	-0.06938765
49	0x3fc0e489	1.5069743
50	0xbf35f3b3	-0.7107498
51	0x3f267a11	0.6503001
52	0x3f320f22	0.6955434
53	0xbf4a7bc2	-0.7909509
54	0x3f772f9a	0.9655701
55	0x3f2b094a	0.6681105
56	0xbf3488a7	-0.70521015
57	0x3e075d6a	0.13219228
58	0xbde172fa	-0.11008258
59	0x3f498039	0.7871128
60	0x3ec778cb	0.38959345
61	0x3e35b06c	0.17743081
62	0xbe70f34e	-0.23530313
63	0x3f97013d	1.1797253
64	0x3f43f571	0.7654639
65	0xbf233c5e	-0.6376399
66	0xbf43a053	-0.7641651
67	0xbf04e0e0	-0.5190563
68	0xbce447d6	-0.027866285
69	0xbf775972	-0.9662086
70	0xbf7e7aa6	-0.99405897
71	0x3eac91b2	0.33704907
72	0xbd8c91de	-0.068637595
73	0xbf1c3f18	-0.61033773
74	0xbee245e2	-0.4419394
75	0xbe2372fa	-0.15961829
76	0x3ede7259	0.43446615
77	0x3ec5bb3a	0.38619405
78	0x3f6ce74c	0.9254043
79	0xbf746d3f	-0.95479196
80	0x3f05e22f	0.52298254
81	0x3f832c95	1.024798
82	0x3ebaad12	0.36460167
83	0x3ea19185	0.31556335
84	0x3f3c6afc	0.73600745
85	0xbd50bb37	-0.050959792
86	0xbf25a44b	-0.64703816
87	0x3eaf6adb	0.34261212
88	0xbdc2c976	-0.09511082
89	0x3dddde76	0.10833447
90	0x3eec6e69	0.46177986
91	0x3f446bda	0.7672707
92	0x3e0ec88d	0.13943692
93	0x3cd674a2	0.026178662
94	0x3e92dbf3	0.28683433
95	0x3db7eb6d	0.08980451
96	0xbdc16b81	-0.09444333
97	0x3f7336a8	0.95005274
98	0x3f80f2cd	1.0074097
99	0x3f711376	0.9417032
100	0x3e3bbdf7	0.18334185
101	0xbe20dfe7	-0.15710412
102	0xbf15aac0	-0.5846367
103	0xbf851abc	-1.0398784
104	0xbcf396a0	-0.02973491
105	0x3c255637	0.010091356
106	0xbf869fdd	-1.0517536
107	0x3f9b8ace	1.2151735
108	0x3ef860ee	0.4851145
109	0xbdbb2e64	-0.09139708
110	0x3d063fa7	0.032775547
111	0xbeea84fb	-0.4580458
112	0x3eabd3b6	0.3355996
113	0x3f758d83	0.95919055
114	0xbe0996d6	-0.13436446
115	0x3edee5c4	0.43534672
116	0x3bb7fa0c	0.0056145247
117	0xbebb7adc	-0.36617172
118	0xbf23875c	-0.63878417
119	0xbeb4c700	-0.35308075
120	0x3e8ee0e6	0.2790596
121	0x3e528f4f	0.2056248
122	0xbd6f046b	-0.058353823
123	0xbf52273c	-0.82091117
124	0x3f1be298	0.6089263
125	0x3f0ed6ab	0.5579631
126	0xbfa889ee	-1.3167093
127	0x3e923d3e	0.2856235
128	0x3ee332a2	0.44374567
129	0xbeb5042a	-0.3535474
130	0xbf52ad0e	-0.8229531
131	0x3e969a8c	0.29414785
132	0x3ed4a9eb	0.41535887
133	0xbd96023e	-0.073246464
134	0x3fab6c45	1.3392416
135	0xbeffd918	-0.49970317
136	0x3e476cc6	0.19475088
137	0x3faf80aa	1.371114
138	0x3fe27962	1.7693293
139	0xbb463989	-0.0030246696
140	0xbeebc882	-0.46051413
141	0x3f689ee5	0.90867454
142	0x3f8a8fbd	1.0825115
143	0xbd9b5a6c	-0.07585606
144	0xbf2a7766	-0.6658844
145	0x3f055be6	0.5209335
146	0xbea4d374	-0.32192576
147	0x3f264697	0.6495146
148	0x3ea1e6a4	0.31621277
149	0x3f801118	1.0005217
150	0x3f1fa2cc	0.62357783
151	0xbef294f4	-0.47379267
152	0xbf9f65aa	-1.24529
153	0xbedfe886	-0.4373209
154	0xbe27590a	-0.1634256
155	0x3b86f347	0.0041183564
156	0xbe987621	-0.29777625
157	0x3e17d231	0.14826275
158	0xbf0cdfd8	-0.5502906
159	0xbf4a5170	-0.79030514
160	0xbf1705a1	-0.58992964
161	0xbcca9da9	-0.024733381
162	0x3e7e7995	0.24851067
163	0x3ec7d17a	0.39027005
164	0x3e95d13d	0.292612
165	0x3dc3ab1c	0.09554121
166	0xbeba9d6a	-0.36448222
167	0xbd895a4c	-0.06706676
168	0x3f68cdb5	0.90938884
169	0x3f099693	0.53745383
170	0xbfd5bfed	-1.6699196
171	0x3f07a397	0.52983993
172	0x3f8f7e71	1.1210462
173	0x3e0b7737	0.13619696
174	0xbccbd9e5	-0.024884174
175	0xbceca259	-0.028886007
176	0x3f52a626	0.8228477
177	0xbdb77214	-0.089573056
178	0x3d3d6797	0.04624137
179	0xbda28081	-0.079346664
180	0x3cf3211f	0.02967888
181	0x3ed04652	0.4067865
182	0x3eecf866	0.46283263
183	0xbede5614	-0.43425047
184	0x3ecb9e42	0.3976918
185	0xbeed2214	-0.46315062
186	0xbeb33193	-0.3499876
187	0x3f1aaede	0.60423076
188	0x3d9ea2fb	0.0774593
189	0xbd3df83d	-0.046379317
190	0x3e0cdd86	0.1375638
191	0x3ecef6ac	0.4042257
192	0x3f555e18	0.833467
193	0x3f238ce2	0.63886845
194	0x3e84ab1f	0.25911805
195	0xbe910eaf	-0.28331515
196	0xbc66432a	-0.014054099
197	0x3f899b7f	1.0750579
198	0x3f8ff0e0	1.1245384
199	0x3e8e087b	0.27740845
200	0xbf0df057	-0.55444854
201	0x3f0b5f5d	0.5444239
202	0x3f8e481f	1.111576
203	0x3e31bea9	0.17357887
204	0x3e0baae7	0.13639413
205	0x3f2509a7	0.64467853
206	0x3e4ed9f5	0.20200332
207	0x3f87715f	1.0581473
208	0x3f89e0dc	1.0771747
209	0x3ecfb761	0.40569595
210	0x3f89cb6b	1.0765203
211	0xbe905930	-0.28193045
212	0xbfdc3de5	-1.7206389
213	0xbe815c31	-0.2526565
214	0xbe37b1cb	-0.17938916
215	0xbf729ee1	-0.9477368
216	0xbe1d4f20	-0.15362215
217	0xbe3d4fa1	-0.18487407
218	0xbe0b5b45	-0.13609035
219	0xbf5effcf	-0.8710908
220	0x3dfe2458	0.12409276
221	0xbd741ac2	-0.05959583
222	0xbe8d064b	-0.27543864
223	0xbf4a4821	-0.7901631
224	0xbe1d23ab	-0.15345638
225	0xbdef2f2e	-0.11678921
226	0xbf32fe80	-0.69919586
227	0x3f2f629c	0.6850984
228	0x3f1718a2	0.5902196
229	0x3f88b1cf	1.0679263
230	0xbf35f4b9	-0.7107654
231	0x3eff4bb4	0.49862444
232	0xbdaec7d0	-0.08534205
233	0xbe1da8aa	-0.15396371
234	0xbfc6c521	-1.5528909
235	0xbe865e8b	-0.26244006
236	0x3f221ad1	0.6332217
237	0xbeeb2cb0	-0.4593253
238	0xbe12be1d	-0.14330335
239	0xbffe1a87	-1.9851846
240	0xbd04508b	-0.032303374
241	0x3f08da56	0.53458154
242	0x3ee76921	0.45197394
243	0xbe234d94	-0.15947562
244	0x3f30c47c	0.6904981
245	0x3e14093d	0.14456649
246	0x3e74f5eb	0.23921935
247	0x3fa6b644	1.3024373
248	0x3f9d28e8	1.2278109
249	0x3f53d6ae	0.8274945
250	0x3f5f5c45	0.8725017
251	0xbf055012	-0.520753
252	0xbf9869ce	-1.1907289
253	0x3e35a11e	0.17737243
254	0x3eed9526	0.46402854
255	0xbf8f49d9	-1.1194412

lstm1.weight_hh_l1 f4 [40, 10]
0	0xbeaac114	-0.33350432
1	0x3e4a0c52	0.19731262
2	0xbbe6b41f	-0.007040515
3	0x3ec18065	0.3779327
4	0x3ef6ec4b	0.48227152
5	0xbeb6ab43	-0.35677537
6	0xbdb1a948	-0.08674866
7	0x3eb5f8e9	0.35541466
8	0x3ceab2bf	0.028649686
9	0x3e8bc31d	0.27297297
10	0xbf36ddeb	-0.7143237
11	0x3eb52478	0.35379386
12	0x3ecfb995	0.40571275
13	0xbf7dab6d	-0.990897
14	0x3d30f2f4	0.04320045
15	0x3f11fbe7	0.57025
16	0x3da4228f	0.08014404
17	0xbf32ce36	-0.698459
18	0x3cc08d59	0.0235049
19	0x3e5e1980	0.21689415
20	0x3e290a4f	0.16507839
21	0x3ec00b86	0.37508792
22	0xbedeadbe	-0.4349193
23	0xbeed5840	-0.46356392
24	0x3c959cc2	0.018263225
25	0xbed0cc95	-0.40781084
26	0x3da847c9	0.08216817
27	0x3e99ccae	0.3003897
28	0xbee3a026	-0.4445812
29	0x3e2756b9	0.16341676
30	0x3da7ab15	0.08186928
31	0x3f2cf1dc	0.6755655
32	0x3f29aacc	0.6627624
33	0x3de4683e	0.11152695
34	0x3f9fa41a	1.2471955
35	0xbe9232c5	-0.2855436
36	0xbd1ee827	-0.038795616
37	0x3d4bb098	0.04972896
38	0xbf9067b5	-1.1281649
39	0x3ee7f018	0.45300364
40	0xbe9de070	-0.30835295
41	0xbee94af1	-0.45564988
42	0xbe0dfd49	-0.13866152
43	0xbec1be76	-0.37840623
44	0x3e9d176f	0.3068194
45	0xbf5120d9	-0.81690747
46	0xbe416f1e	-0.18890044
47	0xbf3d7b68	-0.7401643
48	0x3eacec35	0.33773962
49	0xbe2f43e3	-0.1711574
50	0xbecf1fd1	-0.40453961
51	0x3e6bd0e3	0.23028903
52	0x3f0b724a	0.54471266
53	0xbf645af1	-0.89201266
54	0x3e458152	0.19287613
55	0x3f04ab26	0.5182365
56	0xbea45b6e	-0.32101005
57	0x3e69ceb7	0.22832762
58	0xbe0b0d15	-0.13579209
59	0x3ea221b6	0.31666344
60	0x3f674a0d	0.9034737
61	0xbf2b83fe	-0.6699828
62	0x3f4794f4	0.7796166
63	0xbed5d36f	-0.41762874
64	0x3f43441b	0.76275796
65	0xbf0b02a0	-0.5430088
66	0xbde69628	-0.11259109
67	0xbe63c600	-0.222435
68	0xbed4223a	-0.41432363
69	0x3f821914	1.0163903
70	0x3e51b777	0.20480143
71	0xbf19824f	-0.5996446
72	0xbf49703f	-0.786869
73	0x3e694748	0.22781098
74	0x3e1e53d0	0.1546166
75	0xbe1c2d77	-0.15251718
76	0xbe0a805f	-0.13525532
77	0xbe4dbe48	-0.20092118
78	0xbd26065a	-0.0405334
79	0xbd9e1a2c	-0.07719836
80	0x3e94df7d	0.29076758
81	0x3dda9668	0.10673219
82	0xbe88ca59	-0.2671688
83	0xbe8f3839	-0.27972582
84	0x3e813f46	0.25243586
85	0xbf05827d	-0.52152234
86	0x3c322fe7	0.010875679
87	0x3da805d1	0.082042344
88	0xbecb56e3	-0.39714727
89	0x3f5f6ed4	0.87278485
90	0x3f0cf464	0.5506041
91	0x3d21ee48	0.039533883
92	0x3f776b28	0.9664788
93	0xbea466b4	-0.32109606
94	0x3f29964b	0.66244954
95	0xbf460882	-0.7735673
96	0xbe37efbd	-0.17962547
97	0x3d975b86	0.073905036
98	0xbf89fb48	-1.077981
99	0x3f0dd8c3	0.5540888
100	0x3f25c127	0.6474785
101	0x3d9cb015	0.076507725
102	0x3f158e57	0.5842032
103	0xbf28175e	-0.65660655
104	0x3f5a226f	0.8520879
105	0xbed37f58	-0.41308093
106	0x3ea9426b	0.33058485
107	0xbefd42bd	-0.4946498
108	0xbee05912	-0.43817955
109	0x3ef78821	0.48346046
110	0xbead1e57	-0.3381221
111	0x3d0b12ba	0.033953406
112	0xbf1bd9ef	-0.60879415
113	0x3eceb832	0.40374905
114	0xbe244158	-0.16040552
115	0x3e320787	0.17385684
116	0xbf12c2c8	-0.5732846
117	0x3dd44c29	0.10366089
118	0x3f156a95	0.58365756
119	0xbeced953	-0.4040018
120	0x3f3680b9	0.71290165
121	0xbc775fda	-0.015098536
122	0xbcbad0eb	-0.022804698
123	0xbf99fb0f	-1.2029742
124	0xbddeab2e	-0.10872494
125	0xbf213a84	-0.6297991
126	0xbf4b2544	-0.7935374
127	0xbe2c3a1b	-0.1681904
128	0x3e40a7f4	0.18814069
129	0x3d0e9642	0.034811266
130	0x3f90abb2	1.1302397
131	0xbe754ccb	-0.23955075
132	0x3f2c3c5a	0.6727959
133	0xbe645b3e	-0.22300431
134	0x3fa1ccfa	1.2640679
135	0xbeecb8ef	-0.46234843
136	0x3ea33c03	0.31881723
137	0xbf2a2412	-0.6646129
138	0xbfb5b1a1	-1.4194833
139	0x3f816ac4	1.0110707
140	0x3f5b986f	0.8577947
141	0xbf107367	-0.5642609
142	0x3e58459a	0.21120301
143	0xbee9ca3e	-0.4566211
144	0x3e874b7e	0.26424783
145	0xbfa966f1	-1.323454
146	0xbd1ac080	-0.03778124
147	0xbf821d9b	-1.0165285
148	0xbed8816f	-0.4228625
149	0x3ec4b21f	0.38417146
150	0x3f19c4bc	0.6006582
151	0x3e477729	0.1947905
152	0x3f2ae681	0.6675797
153	0xbe67a715	-0.2262233
154	0x3f0fd953	0.56190985
155	0xbe33538a	-0.17512336
156	0x3e1d8ace	0.15384981
157	0x3db94c71	0.09047783
158	0xbefc602d	-0.49292126
159	0x3f35e386	0.710503
160	0xbd72f38f	-0.059314307
161	0x3f3b6669	0.7320314
162	0x3f338b05	0.70134
163	0x3e48a1f3	0.19593029
164	0x3e1d5863	0.15365748
165	0x3ee7c2eb	0.45265898
166	0x3f2e0611	0.67978007
167	0x3e9ecf6d	0.31017628
168	0x3b73e183	0.0037213273
169	0x3ee25aac	0.44209802
170	0x3eb61794	0.35564864
171	0xbeeb7ab0	-0.4599204
172	0xbf451076	-0.7697824
173	0x3dde407c	0.10852143
174	0x3e067fcd	0.1313469
175	0xbe6c79f3	-0.23093395
176	0xbe207c6e	-0.15672466
177	0xbeb81e12	-0.35960442
178	0xbd253413	-0.040332865
179	0x3e454a65	0.1926666
180	0x3f1f634d	0.62260896
181	0xbf37adda	-0.7174965
182	0x3e42ebf5	0.19035323
183	0xbef07a53	-0.46968326
184	0x3f804b17	1.0022916
185	0xbef2d974	-0.4743153
186	0x3b7e0562	0.0038760533
187	0xbe3069e2	-0.17227891
188	0xbe7b618d	-0.24548931
189	0x3f040543	0.5157053
190	0x3f1b079e	0.605585
191	0xbf0f7531	-0.56038195
192	0x3ea6214b	0.32447276
193	0xbe85241d	-0.26004115
194	0x3f373c81	0.71576697
195	0xbf8ad560	-1.0846367
196	0xbe6ca788	-0.23110783
197	0xbe9bcd88	-0.30430245
198	0xbf86488e	-1.0490892
199	0x3f3ebd32	0.7450744
200	0x3f2f5956	0.6849569
201	0xbe315e99	-0.17321242
202	0xbecf14d6	-0.40445584
203	0xbe12ef97	-0.14349209
204	0xbe1c6e87	-0.15276538
205	0xbf9161af	-1.1357936
206	0xbedbd9f1	-0.42939714
207	0x3d6f1524	0.05836977
208	0x3e06706c	0.13128823
209	0x3e61c341	0.2204714
210	0xbe30edbd	-0.1727819
211	0xbebe3975	-0.3715321
212	0xbd1ef2fe	-0.038805954
213	0xbe74434b	-0.23853795
214	0x3c8e828d	0.017396236
215	0x3cd9ea88	0.026601091
216	0xbcb241d7	-0.02175991
217	0xbe2ee934	-0.17081147
218	0xbdd0d78c	-0.10197362
219	0xbe004b47	-0.12528716
220	0xbe12bb87	-0.14329349
221	0x3ef82cb4	0.48471606
222	0x3f46cf34	0.77659917
223	0xbea31669	-0.31853035
224	0x3d3c88dd	0.04602896
225	0xbe4dfe92	-0.20116642
226	0xbf5cb5c1	-0.86214834
227	0x3e15fe01	0.14647676
228	0xbcf3cf0c	-0.029761814
229	0x3ecf816a	0.40528423
230	0x3edb555b	0.4283856
231	0xbeecdbb3	-0.46261367
232	0x3a7217a4	0.000923509
233	0x3f2c897f	0.673973
234	0xbe29d658	-0.16585672
235	0xbf3ac3f9	-0.7295528
236	0x3ec5f53e	0.38663667
237	0xbe504698	-0.2033943
238	0xbe97683d	-0.29571715
239	0x3e510957	0.20413719
240	0x3ecbd022	0.3980723
241	0xbdc61541	-0.096720226
242	0x3eead49c	0.45865333
243	0xbdd3083b	-0.10304304
244	0xbef34973	-0.47516975
245	0xbea1b9f9	-0.31587198
246	0xbe6e9362	-0.2329841
247	0xbe8d7760	-0.27630138
248	0xbf6790f5	-0.9045556
249	0x3db15e7e	0.08660601
250	0xbf87e689	-1.0617229
251	0x3d20027b	0.039064866
252	0xbe4f9030	-0.20269847
253	0x3d754c7e	0.0598874
254	0x3dceb622	0.10093333
255	0x3f42c289	0.7607809

lstm1.bias_ih_l1 f4 [40]
0	0x3edf3620	0.43595982
1	0x3eaba970	0.33527708
2	0x3f0acd66	0.54219663
3	0x3fae082e	1.3596246
4	0x3ecb9092	0.39758736
5	0x3eb9bc83	0.36276636
6	0x3ea1aa26	0.31575125
7	0x3eff3108	0.49842095
8	0x3fa0bd11	1.2557698
9	0x3f45cc19	0.77264553
10	0x3e2b8c54	0.1675275
11	0xbecf7070	-0.4051547
12	0x3e0976d3	0.13424234
13	0x3f51f15b	0.82008904
14	0xbe6c2549	-0.23061098
15	0x3e0f5fbe	0.14001366
16	0x3e433836	0.19064412
17	0x3ec11a6d	0.37715474
18	0x3f825bf0	1.0184307
19	0x3ece3ba0	0.40279865
20	0x3eb8d26b	0.36098036
21	0x3d283252	0.041063614
22	0x3ecc7dda	0.39939767
23	0xbccb9366	-0.024850558
24	0x3ecde01d	0.40210047
25	0xbe29750e	-0.16548559
26	0x3f2439ad	0.64150506
27	0x3dcba2c8	0.099431574
28	0xbe0cc6bf	-0.1374769
29	0x3f35b066	0.7097229
30	0x3f559b09	0.8343969
31	0x3db6a274	0.08917704
32	0x3f36f8a5	0.7147315
33	0x3f8223f7	1.0167226
34	0x3ebb3e1d	0.36570826
35	0x3ec03b65	0.37545314
36	0x3e6b20d1	0.22961737
37	0x3da1d7c8	0.07902485
38	0x3f5e1aef	0.8675985
39	0x3d1244fb	0.035710316

lstm1.bias_hh_l1 f4 [40]
0	0x3e03641d	0.12831159
1	0xbe422745	-0.18960293
2	0x3f31990c	0.69374156
3	0x3fa8d1ed	1.3189064
4	0x3ed04e16	0.40684575
5	0x3ec4fc1f	0.38473603
6	0xbe438c4c	-0.19096488
7	0x3f1f3627	0.62192005
8	0x3f9da5a3	1.2316173
9	0x3f452e15	0.7702344
10	0x3e44b6d3	0.19210367
11	0xbef52a4d	-0.47883835
12	0x3d45213b	0.048127394
13	0x3f5d76e5	0.86509544
14	0x3cc7998d	0.02436521
15	0xbbe1b67e	-0.00688821
16	0x3df8b32f	0.121435516
17	0xbd925932	-0.07145919
18	0x3eed1591	0.46305516
19	0x3e24607e	0.16052434
20	0xbd62e4ee	-0.055394106
21	0x3d059105	0.032609005
22	0x3ed53260	0.41639996
23	0x3c6a24b7	0.01429098
24	0x3d454b61	0.04816759
25	0x3d527391	0.051379744
26	0x3f0c423f	0.54788584
27	0xbe4ea381	-0.2017956
28	0x3dccb447	0.09995323
29	0x3e9c24b5	0.30496755
30	0x3f65f293	0.89823264
31	0x3e9efad8	0.31050754
32	0x3f451f7d	0.7700117
33	0x3f18106a	0.59400046
34	0x3f1fd6c4	0.6243708
35	0x3f3a3b42	0.7274667
36	0x3ee8e6f5	0.45488706
37	0x3d5592b4	0.05214186
38	0x3fa3c54c	1.2794585
39	0x3e14df93	0.14538412

lstm1.weight_ih_l2 f4 [40, 10]
0	0x3fe1119c	1.7583499
1	0xbf4dcfe2	-0.8039533
2	0x3e4fca1f	0.20291947
3	0x3e18ef4d	0.14935036
4	0x3de63774	0.112410456
5	0xbfa5c365	-1.2950255
6	0xbf0be7a5	-0.54650337
7	0xbf226e1d	-0.6344927
8	0xbf6cacfb	-0.9245145
9	0x3f29907a	0.6623608
10	0x3f170d7e	0.5900496
11	0xbee8dab8	-0.4547937
12	0x3ea715a7	0.32633707
13	0xbe86739c	-0.26260078
14	0x3f3b878f	0.7325372
15	0xbf830e8a	-1.0238812
16	0xbe7c17c7	-0.24618445
17	0xbb1e3f0b	-0.0024146463
18	0xbf391bbc	-0.72307944
19	0x3f510058	0.8164115
20	0xbea63b8d	-0.3246731
21	0x3f9f42b5	1.2442232
22	0xbc8b53fb	-0.017007818
23	0xbe4e06b4	-0.20119745
24	0x3c9ae1b8	0.01890646
25	0x3f8c4592	1.0958731
26	0xbed45e64	-0.41478264
27	0xbd2d39d5	-0.04229148
28	0xbf81dcbf	-1.0145491
29	0xbea0065c	-0.31254852
30	0x3f8d9bbc	1.1063151
31	0xbd814f99	-0.0631401
32	0x3ef087fb	0.46978745
33	0xbf140990	-0.5782709
34	0x3f813554	1.00944
35	0xbf01437d	-0.50493604
36	0x3e5e329e	0.21698996
37	0xbfc40067	-1.5312623
38	0xbf2ff90f	-0.6873941
39	0x3f0be5e7	0.5464768
40	0x3ee2e9b8	0.44318938
41	0xbeaf71aa	-0.34266406
42	0x3ce0f7eb	0.027461966
43	0xbf3879ae	-0.7206067
44	0x3f727f83	0.9472582
45	0xbe8d1edd	-0.2756261
46	0xbcabe853	-0.020984804
47	0xbf2b7faa	-0.66991675
48	0xbee10e6d	-0.43956318
49	0x3eddd898	0.4332931
50	0x3ecc2a01	0.39875796
51	0xbe33750c	-0.17525119
52	0x3f145b6d	0.57952005
53	0xbf133b29	-0.57512146
54	0x3e8cbb83	0.2748681
55	0xbd32606d	-0.04354899
56	0x3dc526e3	0.09626558
57	0xbe57c213	-0.21070127
58	0xbf4a59d4	-0.79043317
59	0x3f4561a8	0.77102137
60	0x3d1bac26	0.03800597
61	0xbc693150	-0.014232948
62	0x3f839302	1.0279238
63	0xbf33cb5f	-0.70232195
64	0x3f379ef0	0.71726894
65	0xbe34f57c	-0.1767177
66	0x3d05927f	0.032610413
67	0x3e1cb317	0.15302692
68	0xbec10a42	-0.3770314
69	0x3f4f2adc	0.80924773
70	0x3e4885ab	0.1958224
71	0xbea8c44a	-0.32962257
72	0x3e46b8cc	0.19406432
73	0xbf77eb62	-0.9684354
74	0x3eb75e38	0.3581407
75	0xbe89110a	-0.26770812
76	0xbe3d124f	-0.18464015
77	0xbf1ef6eb	-0.62095517
78	0xbef15f6c	-0.47143114
79	0x3f1cc4e8	0.61237955
80	0xbd276a26	-0.040872715
81	0x3d6527a6	0.055946015
82	0x3f6f972b	0.9359004
83	0xbf1cf25e	-0.6130732
84	0x3f202c05	0.6256717
85	0x3e1662a6	0.14686069
86	0x3eed2adb	0.4632176
87	0x3f460fac	0.77367663
88	0xbf5702e7	-0.83988804
89	0x3f255eb2	0.6459762
90	0x3faa26e9	1.3293124
91	0xbf1573a7	-0.58379596
92	0x3e73d4ce	0.23811647
93	0x3eb04a40	0.34431648
94	0x3ec22327	0.37917444
95	0xbf5fc13c	-0.8740423
96	0x3daf4be8	0.085594
97	0xbe5ac8b3	-0.21365623
98	0xbd57173d	-0.052512396
99	0x3f4477b7	0.7674517
100	0x400979de	2.1480632
101	0xbf9256d7	-1.1432751
102	0x3e4e3732	0.20138243
103	0x3e4d0208	0.20020306
104	0xbe87495f	-0.26423165
105	0xbf6820cc	-0.90675044
106	0xbe472758	-0.19448602
107	0xbf5b574b	-0.85680073
108	0xbf4db1ff	-0.80349725
109	0x3ebf915b	0.37415585
110	0xbd91c1c0	-0.07117033
111	0x3c67efc3	0.014156285
112	0x3f3b1e1e	0.7309283
113	0xbe8e12e9	-0.27748802
114	0x3f3ee12e	0.74562347
115	0xbe8989c3	-0.26862916
116	0x3d8cd7fb	0.068771325
117	0xbf81d958	-1.0144453
118	0xbf59675c	-0.8492334
119	0x3f34d7cb	0.70641774
120	0x3dd84109	0.105592795
121	0x3e3f1577	0.18660532
122	0xbed7720b	-0.42079195
123	0x3f9fd9aa	1.2488301
124	0xbe58e609	-0.21181501
125	0x3e90a76b	0.2825273
126	0xbf83fc8c	-1.0311446
127	0xbeea039f	-0.45705888
128	0x3e4b9f35	0.19884951
129	0xbc1ae224	-0.00945333
130	0x3ebc911c	0.3682946
131	0xbf20e05d	-0.6284235
132	0x3efafef7	0.49022648
133	0xbe81c67d	-0.25346747
134	0x3edf2744	0.43584645
135	0xbec1f08f	-0.37878844
136	0x3d7b4b1e	0.061350934
137	0xbec95674	-0.3932377
138	0xbec7fc3e	-0.39059633
139	0x3f1bde59	0.6088615
140	0x3e2e820f	0.17041801
141	0xbe1801d5	-0.14844449
142	0x3ee71a2f	0.45137164
143	0xbf13ddec	-0.577605
144	0x3f9fc6b4	1.2482514
145	0xbf0eed81	-0.5583115
146	0x3eb2e633	0.34941253
147	0xbf22a33c	-0.63530326
148	0xbe7b9f9d	-0.24572606
149	0x3f5ed516	0.87043893
150	0x3e91d65d	0.2848386
151	0x3d9a2396	0.07526319
152	0x3ed17ee6	0.40917128
153	0xbea9fa34	-0.33198702
154	0x3ea54eb7	0.32286617
155	0xbeff1cc3	-0.4982663
156	0x3f990b24	1.1956525
157	0x3d2fe6b3	0.04294462
158	0xbe87f816	-0.26556462
159	0x3f331f61	0.69969755
160	0x3e78242f	0.24232553
161	0x3c499c15	0.012305279
162	0x3ef452a6	0.47719306
163	0xbeb21ed2	-0.3478914
164	0x3f2acc23	0.6671774
165	0xbdda2486	-0.106514975
166	0x3f4a60b7	0.79053825
167	0x3e58abd3	0.21159296
168	0xbf659d19	-0.89692837
169	0x3f24e1e7	0.644072
170	0xbba30682	-0.004975141
171	0x3eb31d00	0.34983063
172	0x3f20d2f9	0.6282192
173	0xbf993d4d	-1.1971833
174	0x3f03302c	0.5124538
175	0x3f2eae90	0.6823511
176	0x3e20dab8	0.15708435
177	0xbe2481e5	-0.16065176
178	0x3d257906	0.04039862
179	0x3e942655	0.28935495
180	0xbec7d41f	-0.39029023
181	0x3e9a2183	0.30103692
182	0x3f1b1279	0.6057506
183	0xbf0079b4	-0.50185704
184	0x3e250049	0.1611339
185	0x3f0ae296	0.5425199
186	0xbf5ed39c	-0.8704164
187	0x3d9e7706	0.07737546
188	0xbdcb89d1	-0.09938396
189	0x3ec2e09e	0.38061994
190	0x3f004822	0.50110066
191	0x3f1f7f5b	0.62303704
192	0x3e91f6ac	0.28508508
193	0x3e6aa641	0.22914983
194	0x3dd14c27	0.10219603
195	0xbcb5c2bd	-0.022187585
196	0x3fafd65f	1.3737296
197	0x3ed6ddf7	0.4196622
198	0xbecfa001	-0.4055176
199	0x3eb121aa	0.34595996
200	0xbd49d951	-0.049279515
201	0xbe6370c3	-0.22210984
202	0xbf597ae9	-0.8495317
203	0xbeb272af	-0.34853122
204	0xbe01e92c	-0.12686604
205	0xbe6f95c6	-0.23396978
206	0xbf6b464a	-0.9190413
207	0xbea406a7	-0.32036325
208	0x3ef9fc24	0.4882518
209	0xbf1eb872	-0.6200019
210	0x3f9d5517	1.2291592
211	0xbf4e227b	-0.80521363
212	0x3cd60957	0.0261275
213	0x3f4c8bfe	0.7990111
214	0x3e25ec6b	0.16203468
215	0xc015c42c	-2.3400984
216	0xbf1eb5ed	-0.61996347
217	0x3ee45997	0.44599602
218	0x3e818ac2	0.25301176
219	0x3e248a03	0.16068272
220	0x3ee74e04	0.4517671
221	0x3e2759cb	0.16342847
222	0x3f32692c	0.6969173
223	0xbdcb4950	-0.099260926
224	0x3e1e8ca8	0.15483344
225	0x3dc5d3e9	0.09659559
226	0x3fbdb236	1.4820011
227	0xbe4c0486	-0.199236
228	0xbf376bc5	-0.7164882
229	0x3f3717ea	0.71520865
230	0xbf9c9876	-1.2234027
231	0x3fe7a5ff	1.8097533
232	0x3f07d7bf	0.5306358
233	0xbe966feb	-0.29382262
234	0xbdc93636	-0.09824793
235	0x3fb4cae8	1.4124422
236	0x3e910073	0.28320655
237	0x3f5093a6	0.81475294
238	0xbe8ed11a	-0.27893907
239	0xbe2ec80b	-0.17068498
240	0xbd8c7ad1	-0.06859363
241	0xbe3dfa3a	-0.18552485
242	0x3f4e20f8	0.80519056
243	0xbf3ac6b4	-0.72959447
244	0x3f30e845	0.69104415
245	0x3ea8e357	0.32985947
246	0xbea21444	-0.31656086
247	0x3f0e8364	0.55669236
248	0xbfc651b9	-1.549369
249	0x3f1b5865	0.60681754
250	0x3eab80d3	0.33496723
251	0xbe14805a	-0.14502087
252	0x3f78ca3e	0.971836
253	0xbf6da0f4	-0.9282372
254	0x3f3446e5	0.70420676
255	0x3cf31b63	0.029676145

lstm1.weight_hh_l2 f4 [40, 10]
0	0xbdb78b37	-0.089621
1	0x3eed4e65	0.46348873
2	0x3ea9e5b3	0.3318306
3	0xbf6d3b81	-0.9266892
4	0xbd3f6dbf	-0.04673552
5	0x3ecc144c	0.39859235
6	0x3f2ec84b	0.6827437
7	0xbefc72bd	-0.49306288
8	0xbe1316b4	-0.1436413
9	0xbe5db907	-0.21652614
10	0xbf6f2490	-0.93415165
11	0xbf246248	-0.64212465
12	0x3f90ebe8	1.1321993
13	0x3ef80d2a	0.48447543
14	0x3f6d81be	0.92776096
15	0x3fa53d37	1.2909306
16	0x3fa352e4	1.2759671
17	0x3f152bf2	0.5827018
18	0xbf0cdc71	-0.55023867
19	0x3f6bda9b	0.9213044
20	0xbd4b21b7	-0.0495927
21	0x3f48b528	0.7840142
22	0x3f2e7e62	0.68161595
23	0xbeed137d	-0.4630393
24	0x3f324020	0.69629097
25	0x3f93f709	1.1559764
26	0x3fc20e60	1.5160637
27	0x3f5fe7c2	0.8746301
28	0xbede7903	-0.434517
29	0x3f734d06	0.95039403
30	0xbe20ab09	-0.15690245
31	0x3ef57154	0.47938025
32	0x3f41fc49	0.7577558
33	0x3e83e92a	0.25763828
34	0x3ed442fd	0.41457358
35	0x3ecd9a97	0.40157005
36	0x3ef0cd53	0.4703165
37	0x3c57915c	0.013157215
38	0xbd9865e2	-0.074413076
39	0x3f138d3f	0.576374
40	0x3ee13723	0.43987378
41	0x3dae68e6	0.085161015
42	0xbf11bdc4	-0.56930184
43	0xbf483b26	-0.78215253
44	0x3f1c9d9c	0.6117799
45	0x3ce3d979	0.02781366
46	0x3d07c9a6	0.03315129
47	0x3e0134c7	0.12617789
48	0xbe4641da	-0.19361058
49	0x3fe6209f	1.7978705
50	0xbde11219	-0.1098978
51	0x3ea037fe	0.3129272
52	0xbe27c566	-0.16383895
53	0x3ec159f7	0.3776395
54	0x3f0402da	0.5156685
55	0xbede92ca	-0.43471366
56	0xbe756bf8	-0.23966968
57	0x3f0e10cd	0.55494386
58	0xbf39f440	-0.7263832
59	0xbea4c1ba	-0.32179052
60	0xbde47fc8	-0.11157185
61	0x3f59d398	0.8508849
62	0xbf1f1248	-0.6213727
63	0xbef245e2	-0.4731894
64	0x3f27c2d0	0.65531635
65	0x3e71ceee	0.23614094
66	0x3f3e01da	0.74221575
67	0x3f69ecfd	0.9137724
68	0xbebf8463	-0.3740569
69	0xbf53a4a7	-0.82673115
70	0xbd912dee	-0.070888385
71	0xbf4f3c58	-0.8095145
72	0xbf11b3e9	-0.56915146
73	0x3d6919e3	0.056909453
74	0xbd2aa278	-0.04165885
75	0x3c6f95d7	0.014623127
76	0xbe4f9070	-0.20269942
77	0x3ea6ce23	0.32579145
78	0xbef4913f	-0.47767064
79	0xbda04ecf	-0.078275315
80	0x3e72b48e	0.23701689
81	0x3ec35c36	0.3815629
82	0xbe55b053	-0.20868044
83	0x3f022912	0.5084392
84	0x3f818cf0	1.0121136
85	0x3f9df0cf	1.2339114
86	0x3ece33e9	0.4027398
87	0x3e7297e0	0.23690748
88	0xbfa4539f	-1.2838019
89	0xbf18bbfd	-0.5966185
90	0x3e83507e	0.25647348
91	0x3f6f190c	0.93397593
92	0xbe0b424f	-0.13599513
93	0xbf49e83c	-0.78869987
94	0x3d003d11	0.031308237
95	0xbea5b98b	-0.3236812
96	0xbe6e4e03	-0.23271947
97	0xbe83589b	-0.25653538
98	0x3ea6cd77	0.32578632
99	0xbd3a04bd	-0.045414675
100	0x3e2cc142	0.16870597
101	0x3f60c5b1	0.87801653
102	0x3e594cdb	0.21220724
103	0xbf241852	-0.6409961
104	0x3f30ae58	0.6901603
105	0x3ecd79b2	0.4013191
106	0x3f64fbc3	0.8944666
107	0xbc68b87e	-0.014204143
108	0xbecc7bd5	-0.39938226
109	0x3ef56748	0.4793036
110	0xbf29aee0	-0.66282463
111	0xbf3c15e9	-0.7347093
112	0x3f1c4b41	0.6105233
113	0x3e5a499d	0.21317144
114	0x3f563f95	0.8369077
115	0x3f97b8b9	1.1853248
116	0x3f8e06f0	1.1095867
117	0x3f4e4833	0.8057892
118	0xbf5b698a	-0.85707915
119	0x3e97dcd3	0.29660663
120	0xbf4be576	-0.79647005
121	0xbf1008e3	-0.5626356
122	0x3fc36bc2	1.526726
123	0x3e6e1792	0.23251179
124	0x3d6feb60	0.05857408
125	0x3eb76c6e	0.35824913
126	0x3ead0925	0.3379604
127	0x3d18dbe5	0.037319083
128	0xbe3c31b5	-0.18378337
129	0xbf188aaa	-0.59586585
130	0xbf0db54c	-0.5535476
131	0x3f0188c5	0.5059932
132	0x3cc86bc9	0.024465458
133	0xbe2bb6f7	-0.16769014
134	0x3f5e7d45	0.86909896
135	0x3e91c7c5	0.28472725
136	0x3f5209fc	0.82046485
137	0x3e610eb7	0.2197827
138	0xbebec4ce	-0.37259525
139	0x3f8af48d	1.0855881
140	0x3f234a0d	0.6378487
141	0x3e9f62e6	0.3113014
142	0xbea932ca	-0.3304656
143	0xbf1adaa5	-0.60489875
144	0x3eea887d	0.45807257
145	0x3e62b666	0.22139892
146	0x3f12665c	0.5718744
147	0x3f27d89a	0.6556488
148	0xbf34807d	-0.7050856
149	0x3fdd40bf	1.7285384
150	0x3e965f6f	0.29369685
151	0x3f5e5703	0.8685152
152	0xbf27877e	-0.6544112
153	0xbf022b3d	-0.50847226
154	0x3ecfc575	0.40580335
155	0x3f40c74f	0.7530412
156	0x3f0efb14	0.55851865
157	0x3eea93d2	0.45815903
158	0xbeb1b7e9	-0.34710625
159	0x3e8fb0e6	0.2806465
160	0x3d51e2f2	0.051241823
161	0x3f1a5ecd	0.60300905
162	0xbd8fa803	-0.070144676
163	0xbc9e8f0a	-0.019355316
164	0x3f668251	0.900426
165	0x3f75ac65	0.9596618
166	0x3e9e1e13	0.3088232
167	0x3f7c83e9	0.9863878
168	0xbf8dce0f	-1.1078509
169	0xbece5fa2	-0.40307337
170	0x3ed680b5	0.4189507
171	0xbe90d032	-0.2828384
172	0xbf49c492	-0.7881557
173	0x3e842cd2	0.25815445
174	0x3f4cbdd5	0.7997716
175	0x3e981d39	0.29709795
176	0xbe57face	-0.21091768
177	0x3ea84dcc	0.32871854
178	0xbf289b9c	-0.6586244
179	0xbe09ecee	-0.13469288
180	0x3f5a694c	0.8531692
181	0xbe6df48b	-0.23237817
182	0xbf799499	-0.9749237
183	0x3f64c582	0.89363873
184	0x3ee08175	0.43848768
185	0xbe6003cf	-0.21876453
186	0xbe59a92e	-0.21255943
187	0x3ec1fa20	0.37886143
188	0xbed034a2	-0.40665156
189	0xbf00c57f	-0.50301355
190	0xbf92033e	-1.140724
191	0x3eb1d941	0.34736064
192	0x3f06505b	0.5246636
193	0xbe4f3c62	-0.20237878
194	0xbe1f22b5	-0.15540583
195	0x3eecbba4	0.46236908
196	0xbdc1b2c0	-0.09457922
197	0x3f45ba8d	0.7723778
198	0xbf5eee80	-0.8708267
199	0xbd8b72b2	-0.06808986
200	0x3f1e9161	0.6194058
201	0xbee581b5	-0.4482552
202	0xbf6e66ba	-0.931255
203	0x3dffc874	0.12489405
204	0xbd001fe1	-0.031280402
205	0xbecea3ad	-0.4035925
206	0xbf6dfef4	-0.9296715
207	0xbe944a7d	-0.2896308
208	0x3f456276	0.77103364
209	0x3e1b7bc2	0.15183929
210	0x3efefe1f	0.49803254
211	0x3aebf25a	0.0018001304
212	0xbeb28d0c	-0.34873235
213	0xbf44e4fb	-0.76911896
214	0x3e0b9aed	0.13633318
215	0xbe6ef087	-0.23333941
216	0xbe841b6f	-0.2580218
217	0x3d9355e9	0.071941204
218	0xbd21e4c5	-0.039524812
219	0xbf308ca2	-0.6896459
220	0x3d7925db	0.060827117
221	0x3e8e0cc7	0.27744123
222	0xbe798461	-0.24366905
223	0xbdf3cc72	-0.11904229
224	0x3f092f7b	0.53588074
225	0x3f340013	0.70312613
226	0x3f5138e0	0.8172741
227	0x3e81ac67	0.25326845
228	0x3e1a6844	0.15078837
229	0x3ed506ab	0.4160665
230	0x3f0cd44b	0.55011433
231	0xbf103bcb	-0.56341237
232	0xbf28b9f8	-0.65908766
233	0xbebea07b	-0.37231812
234	0xbc1b14c8	-0.009465404
235	0xbcca6453	-0.024706041
236	0xbea5d27d	-0.32387152
237	0xbec2052b	-0.37894568
238	0x3dc11caa	0.09429295
239	0xbe1ff15a	-0.15619412
240	0xbf0bcdd0	-0.5461092
241	0xbde673ac	-0.112525314
242	0x3e39d81e	0.18148848
243	0x3e5b22c0	0.21399975
244	0x3fd0aec1	1.6303331
245	0x3f5a1e2b	0.8520228
246	0x3f4abe59	0.791967
247	0x3e91b3f5	0.2845761
248	0xbf011cba	-0.5043446
249	0x3f2f970d	0.6858986
250	0x3d8932ac	0.06699118
251	0x3e3b6dcb	0.18303601
252	0xbe9bc541	-0.3042393
253	0x3ebbf473	0.36709937
254	0x3e0ab878	0.13546932
255	0x3f95df91	1.1708852
